Task1-基于机器学习的文本分类/model/weights.npy (npy, 400168 bytes, 1 tensors)

array f8 [5, 10001]
0	0x3fe0241e4f097eb8	0.5044089835827981
1	0x3fb67ff240bd86d9	0.08788980560850791
2	0xbfe556808224d439	-0.6668093244430856
3	0xbff27f60cbdf826a	-1.1560981715957959
4	0x3fae4e8124405d54	0.05919269149324671
5	0xbff70bfbe06cce92	-1.4404257551767938
6	0x3fef9bfcce1fd4af	0.9877914453378674
7	0xbfdb567bf49b70a7	-0.4271535767309253
8	0xbff06262fc2755c2	-1.0240201806785625
9	0xbff55f30e65d7014	-1.3357399939186552
10	0x3ff6eee8bd68e78a	1.4333274267978333
11	0x3ffc85d91c380101	1.7826777555747528
12	0xbff54896f0a217ab	-1.3302220725758882
13	0x3fea8983eba37200	0.8292865373910558
14	0xbfce4b4aff9309ce	-0.23667275885789113
15	0x3ff2d20c56a46bc9	1.1762812981094035
16	0xc00233f407e0b5c0	-2.275367795510391
17	0xbfcec6ff7c263980	-0.24044793664911523
18	0xbfdac965f1514742	-0.41854237142716866
19	0x3ff5e1cd44839297	1.3676273990942371
20	0xbfd63ea486009121	-0.34757340513376006
21	0x3fd86ae44700da0b	0.38152415212553653
22	0x3fa02e4dbfa08e56	0.03160326923560024
23	0x3fec0f0693a7a9b1	0.876834190739194
24	0x3fe60958c811b87d	0.6886409671403865
25	0xbfd988c33d0959a1	-0.39897232971761737
26	0xbfcb914a0f61414a	-0.21537137747737695
27	0x400145c9a4bdcb3d	2.1590760107441427
28	0x3fef6c7151f879fd	0.9819876290310386
29	0xbfed284dea0dd9c8	-0.9111699649209237
30	0x3ff4733504420322	1.2781267324755352
31	0xbfe2dc4dfe3111fa	-0.5893926586800824
32	0xbfea018c7b211c35	-0.8126890568609101
33	0x3fdcaeabed15888d	0.4481611075663146
34	0xbfe00dd3c8231f54	-0.5016878994874596
35	0x3fd547903d0f81c5	0.3324928852362315
36	0x3fe3c6a72646e45b	0.6179996249767429
37	0x3faccbaf8977eb20	0.05624149849969329
38	0x3fd9216626fce4ce	0.39266351516159836
39	0xbff1bae72d9212f4	-1.1081306247808103
40	0xbffa48aa80e8d6a0	-1.6427407298591916
41	0x3fd1259f89d39719	0.2679213376962806
42	0xbfe4c918c5a6c5c2	-0.6495479450588209
43	0xbfc34584acfd6f07	-0.15055902907158034
44	0xbfc44012f3fcd028	-0.1582053843827691
45	0x3f962c036c5d9786	0.021652272690878792
46	0xbfe424349115d6f8	-0.6294195970246781
47	0x3ff273aa281ca10b	1.1532384459370089
48	0x400032ee4753c262	2.0248685429035485
49	0x40019b00c1aedb0c	2.2006850368010245
50	0xbfe8d91ce8134f1a	-0.7765030415270957
51	0xbfcf24542048131e	-0.24329616142508653
52	0xbfd96c5b2ba9b773	-0.39723853362999434
53	0x3fe5c83028703d51	0.6806870260060497
54	0x3fdd3bd81bed3156	0.45677759864044754
55	0xbff86f4c3dc61cca	-1.5271723187486708
56	0x3ff747e1ff4bdc37	1.455049512149129
57	0xbfc87485c9b4a400	-0.19105598782451239
58	0xbfcd4f25e53e235d	-0.2289779061650518
59	0xbfdf3a25d6225b85	-0.4879240599779496
60	0xbfe3db25d530fffc	-0.6205014385122918
61	0xbff8f5568a9f6387	-1.5598969855256841
62	0xbfe0a3cdb7a3df04	-0.5199955546113135
63	0xbfdd83093b4f0a5d	-0.4611228064715414
64	0x3ffa889ae8b5d635	1.6583508577581487
65	0xbfd1d9f9cfd8b5eb	-0.27892918870460787
66	0xbffc3adf0b1d72f4	-1.7643728670292917
67	0xbfdde77e888baa70	-0.46725428900268806
68	0xbfac948c82508595	-0.05582083788636819
69	0x3ff69962035f2252	1.4124469882682615
70	0x3fe13709c061b75e	0.537968517060772
71	0x3fed481341ca3dea	0.9150482449494437
72	0xbfd86c5e356b717c	-0.38161425797240844
73	0xbff128d54957ec13	-1.0724690308550222
74	0x3fd547421cc9f3a0	0.33247425853169865
75	0x3fe4758ec303c8c7	0.6393503006823033
76	0xbfb15b973ef416b6	-0.06780381476354588
77	0x3fce8870fe6aca59	0.2385388605376473
78	0x3fb0af59d28a2fe8	0.06517564191943814
79	0xbff41d04c689ecd1	-1.2570846324368186
80	0x3ff49587a6860fa2	1.2865063195067497
81	0xbfad94b21d6ed436	-0.057775083630453514
82	0xbf90a3ad4fefd419	-0.016249378208119312
83	0x3fe18ea9dc413b0c	0.5486649801112846
84	0x3fecb21f4b9d1666	0.8967434384182524
85	0x3ffa9a76dca51f6f	1.6627110117860544
86	0x3fbeea2717901b72	0.12076038670794079
87	0x400779a1d01117b7	2.934390664598108
88	0xbff30e924a4ae082	-1.191057481961281
89	0x3fd81466e3ca4ec0	0.3762452339662836
90	0x3fd0e4fb372b9bc5	0.2639759100697428
91	0x3ff2f62024b317f4	1.1850892480447301
92	0xbfdbaf668fd6378c	-0.43258060499726336
93	0x3fe4807d90755dad	0.6406848737196263
94	0x3fa3acd1af0c401f	0.03842787992300622
95	0x3fe3bfe093004106	0.6171725150216225
96	0x3ff7352d5e25aaea	1.4504827191946625
97	0x3fda36c9c938f917	0.4095940079750035
98	0x4003b2c9ef6c0a7f	2.462299223408365
99	0x3fcee4a50e1401c7	0.24135268390092632
100	0xbfeaf3274a36904a	-0.8421818208194136
101	0x3fd29e77d55c298b	0.2909221252054059
102	0xbfd3f92f3ce67b06	-0.31208401629730564
103	0xc002bc0c61d02f0e	-2.341820491948858
104	0xbfe3c3342b2d676e	-0.6175785868938257
105	0xbfe2c68096bda01a	-0.5867312378077287
106	0x3fe5cda2e7a855eb	0.6813520931779612
107	0x3fd6e0fea9aafab7	0.3574825913346262
108	0xbff290501836f5a9	-1.1602326341520472
109	0x3fc9c675e96f2c76	0.20136903665693112
110	0xbfdc659ea1c3501b	-0.4437023715702268
111	0xbfd087bb9908d749	-0.2582844728925591
112	0xbfe79fa4c987296b	-0.7382377563565518
113	0xbff466785ac362eb	-1.275017122787342
114	0x3fd5777bb061d1da	0.33541767334761874
115	0xbff253462ac67d6f	-1.1453305884277503
116	0x3fe5b1b6a8f65886	0.6779435443920796
117	0x3ffac2e920466ee7	1.6725856075999503
118	0xbff7800b4ff5c3b8	-1.4687607882917586
119	0x3f72676608ac756f	0.004493139810418752
120	0xbff94b128bc9164a	-1.5808282337542487
121	0xbfe9d2e045859f81	-0.8069917066431885
122	0xbf6b034296e65d77	-0.0032974529814954706
123	0xbfc9cfbc6f9b5ef9	-0.20165210198933162
124	0x3fc6adba349b7e59	0.1771767384407095
125	0x3ff3272f9f0ca1f6	1.197066899572858
126	0xc0027fada997a599	-2.312342953625102
127	0xbfdb16a09b5f120e	-0.4232560651110199
128	0x3f963904b874149a	0.021701883085388653
129	0x3fecfabfa252bb7f	0.9056089563726885
130	0xbfebcbb8df07bb66	-0.8686184269007355
131	0xbfe43e2440e1d3fe	-0.6325856463651005
132	0x3fe96f40e3eeecd6	0.7948307468244831
133	0xbfffe5a7005987c5	-1.993567468038678
134	0x3ff4be6802c7ed7f	1.296485911238818
135	0xbfc56259fb9a4b93	-0.1670639494446645
136	0x3fd37d2ad059ab22	0.30451460215287984
137	0x400801571570a917	3.0006543803220995
138	0xbfc8821c2829e114	-0.19147064171898676
139	0xbfecbdf5b78df5f8	-0.898188456063223
140	0xbff64d7e5e000b0a	-1.3939193412667827
141	0xbfc85eea1271fd17	-0.19039655590675217
142	0x3fd749c110e41361	0.36387659692291235
143	0xbfd89d6da02b6e3c	-0.3846086563259836
144	0x3fc4a7f3da3a7e1c	0.16137550502479392
145	0xbfc8fefd3320868a	-0.19528164860189562
146	0x3ff85151310dbff7	1.5198528209839404
147	0x3fffd5e7f88bb342	1.9897231777969897
148	0x3fd08a8bf907a82a	0.2584562236721718
149	0x3ff2c9c4892205e8	1.1742596966508874
150	0x3fe622c7a9f137bf	0.6917455977616028
151	0xbfc6e76b5d0ed867	-0.17893735927436014
152	0x3fc5d018a6fbb15a	0.1704130950305494
153	0xbfeda2c56197d5cd	-0.9261195093264917
154	0x3fedff218f1e04bb	0.9373939318903902
155	0xbfd3df6d2855109d	-0.31051186503123934
156	0x3fc9c47df8e4822f	0.2013089623733477
157	0x3fc3e97e6fabf84c	0.15556316807482273
158	0x3fd25a8f782ab466	0.2867773698333792
159	0x3fb880a4c91b4b6f	0.09571294698552689
160	0xbfea09a330bee72e	-0.8136764480652567
161	0xbfd562300d8a448e	-0.33411790201450564
162	0xbffb7c99ecf2a29a	-1.717920232369727
163	0x3fde0126b0a4de1c	0.4688202595748139
164	0xc004375d72e8d61f	-2.527033708315471
165	0xc003baa49179eb17	-2.466134201558258
166	0xbffb19dde5766c50	-1.693815132463687
167	0xbfd2b46f5ffc5923	-0.29226288198096223
168	0xbfe8e52f04439c86	-0.777976520851454
169	0xbfeb5425f91af586	-0.8540220132196488
170	0x3fee7ebe47605e33	0.9529715913840334
171	0x3fef066dc805dec9	0.9695347696969857
172	0x3ff027e83310d96b	1.009742927051401
173	0x3ffcfa33be7a208c	1.8110845032224772
174	0x3f934323319ab953	0.01881079664479419
175	0x3fcacba75d9939e6	0.20934001989594647
176	0x3fd2111fd3bdb979	0.2822951858314791
177	0xc00583d7dd967af1	-2.689376574663918
178	0xbff3de2d3c1130bf	-1.2417423578618096
179	0x3fe60847c8f418ed	0.6885107922433044
180	0x3ff785383f2de5ab	1.4700243442478989
181	0xbfd3e25606a194da	-0.3106894554860681
182	0xc004bcac2cd5a372	-2.5921252730080875
183	0xbff4cd9ad7162b65	-1.3001964952297496
184	0x3fec8ebac29ae6cf	0.8924230385666422
185	0xbfe1717419feb585	-0.5450993068422326
186	0xbfc269cba4c80a78	-0.1438536219212272
187	0x3fe994a006d4c265	0.7993927129192114
188	0xbff165c90336aa55	-1.0873499036339542
189	0xbfea58422d5c9d4b	-0.8232737432453318
190	0x3fe99d8c4f132e11	0.8004819435531677
191	0xbff3769d4babd223	-1.2164586025147706
192	0x3fe441443b2ab44e	0.6329671054460364
193	0xbfed529df8e86072	-0.9163350926855982
194	0x3fcad775de377db3	0.2097003302614958
195	0xbfed56883435e2d0	-0.9168129939781355
196	0x3fe1baf8e712aa8b	0.5540737641470782
197	0x3fc0fc1310d6043f	0.13269270250387596
198	0x3fd9fe9f7123d80e	0.40616594361142766
199	0x3ff8ff2843471b7d	1.5622942569768548
200	0x3fef425d130f9367	0.9768510219842995
201	0xbff41c0d1e68ef0c	-1.2568484485518097
202	0x3fbbd754a9a7cf27	0.10875443593959898
203	0xbfb099a4782829ac	-0.06484439786451074
204	0x3fd43f82c945e20e	0.31637639670910367
205	0xbfea30cea79d2333	-0.8184579156596555
206	0xbff047292cb518b8	-1.0173732515700475
207	0xbfb175c18c95dbe9	-0.06820306474934025
208	0xbfcfbbfac6087419	-0.24792418164807442
209	0x3fdd2345f0f23883	0.45527790574931987
210	0xbff91dd31b3e8a2d	-1.569781404898673
211	0x3ff4ebc917f397f7	1.3075648246390281
212	0x3ffa914bc4d01b3b	1.6604726493839752
213	0x3ff1a31c8961e9e1	1.1023221365454605
214	0xbfaae6bfd8e9f600	-0.05254172823786618
215	0xbfedeae7fef95ba3	-0.9349250774347307
216	0x3fe24e646c2d3eb9	0.5720693695856972
217	0x3fe55ad2bb3d874c	0.6673368126905443
218	0x400178569a6bc9f0	2.1837589325089013
219	0x3ff798b7bc756e99	1.4747845994633393
220	0x3fb6727614c96b3b	0.08768404014101076
221	0x3fc9f17eb10253b4	0.20268233912488898
222	0xc0043b32308a349b	-2.5289043228318184
223	0x3fd63f67e3ad7e27	0.34761998399878496
224	0xbff30b0596914955	-1.190190876154323
225	0xbfe992109b3f4475	-0.7990801841898604
226	0xbffdd195637b96c9	-1.8636678587003408
227	0x3fe5370fb44c7f50	0.6629713555775911
228	0xbfe27b8d8f78d87c	-0.5775821497143308
229	0xbff087af5edd05d9	-1.0331262307739648
230	0x3fdb73d8ba0513a3	0.42894571462630376
231	0x3fe91552fb0c65a6	0.7838530448236056
232	0xbff68f9788a7bb88	-1.4100566232770877
233	0x3fccdd1228134330	0.2254965491943266
234	0xc000e96c7b0658eb	-2.113976441508489
235	0xbfe0303abdd0d64e	-0.5058873851145991
236	0x3ff73da0ba3385f0	1.4525458596693817
237	0x3fdf95cbd74663d0	0.4935178377432381
238	0xbfeab62efd0edd65	-0.8347392027416559
239	0x3fdaa7d0d1877b87	0.4164926572975038
240	0xbffaba37f358ccbb	-1.670463514875151
241	0x3feb800aecaac80d	0.8593802091984358
242	0xc001d0ac44b66dcf	-2.2268910759137053
243	0x40059d006cf8327b	2.7016609681361934
244	0x3fe74447637d131c	0.72708482200014
245	0xbfe196faec7d2b64	-0.5496801966595339
246	0xbfd6eee625e5cef1	-0.3583312387556666
247	0x3ffe80bfae084b5c	1.9064328001156445
248	0x3fef61ac4fc025ee	0.9806729848507396
249	0x3fecc12e3e899cf4	0.8985816213070437
250	0x3ff6a202c794b858	1.4145534320955644
251	0x3fe76eaa0c3110f7	0.7322588194006404
252	0xbfeee925e4abdf11	-0.9659604517209762
253	0xbfdbc9b7c3043985	-0.43418687862949695
254	0x3fe151074b24d400	0.5411411731389535
255	0xbfe8da3805a42426	-0.7766380415133696
