Task1-基于机器学习的文本分类/model/weights.npy (npy, 400168 bytes, 1 tensors)

array f8 [5, 10001]
0.1314640942870931 -0.2897878406521699 -1.3941542052750922 1.4115828731910636 1.1030014308069789 0.3453484258492507 0.5670657115603172 2.358562678624928
-1.8673509555510963 -0.4918589693127689 0.6757601542126818 1.3227156435648342 0.33181215005475184 0.8691567614447792 1.9356954507349966 0.5491170227017065
-0.07440825960114666 -1.8445340671443065 -0.9192710989451185 -0.6685020769667659 -0.6535376150036305 0.5228271047776616 0.03746190282139697 -0.05580811783511363
0.9381019183973484 2.1158603850416764 -1.7147710335645652 -0.6737295201294938 -0.12816612977139516 -0.4277112672009835 -1.2221030952688259 -1.7066674960212744
1.4345286352524964 -0.6962828562598824 1.2809700484778515 -0.08412867004065572 -0.3187202748760786 -1.702110627454813 -0.07489501049165344 0.23757336094819745
-0.38582396634915256 -0.6529395988832483 -0.028376315408982108 -1.2110517888469345 -0.3114559430077075 -0.13122688159497695 -1.286328689864924 -0.3291254224089712
0.5087021182602196 -0.5939389693184086 -2.0500490825850606 -0.4864472677057459 0.014863296264363524 -1.0118378859512174 0.5073851567681773 0.6180734223813386
0.7358457312921468 -0.6061443915713588 -0.3364579818391388 3.460621050449255 1.1808022903103035 -2.2396433698966662 -0.7615895442047063 0.6179624133914503
0.8450544844573408 2.5495127996302234 -0.14787803904807167 -2.035918162940646 0.005657247385989676 1.116108250686489 -0.7170169757151827 0.2739255618369331
-0.10570377424104122 -0.3512563202838916 0.3519683764424141 -0.2783382393498383 1.6276396120102588 -1.4312103852577724 -1.7467966892055553 0.35924260901895827
0.4844903660539078 -0.19550197817246318 -0.20281578237506415 -1.084245344705764 0.313102477866909 0.034438528616199664 0.7894467572470073 0.04751363133694881
-0.5484673229621443 -0.2542351576238434 0.7971155442713114 0.4893643932799441 1.5253484366243468 1.2015861953701332 -0.5894185423902345 1.726133805421523
2.198335751236809 0.059212045460557444 -0.14625062287394272 -1.2996600960266707 -0.2754302153727188 0.7730407782760322 1.5339698658993135 0.47525068176406254
-0.4426592258686364 -0.10604106867907974 -1.6390262124100963 -0.08896454514006781 0.3837073837824969 0.889512205948933 1.2740035382870571 0.40696240864383654
-0.17642334055329972 -0.9305396052580637 -0.37316268593903196 0.7909806988177868 0.44645919823425645 -1.208923821445585 -0.8859314762520316 -0.04492859155139309
0.4629230490267143 -0.0617777427154645 -0.377690992783414 -2.054470512704633 -0.584081316572448 -1.3374464327873465 0.5795837861785991 -0.7214229764707317
1.698604098871684 -0.049124670995837665 0.6891802116040251 0.32600505024192206 1.3052759330720938 0.16141750668416627 -1.962877007408564 1.1058115095347527
0.3699642078750972 -0.6858671985733458 0.21826799305680633 -1.254094496453686 0.6272519842647498 0.44289721287235945 2.229785914845048 -0.16111314268329646
1.6395425263882384 0.5696834826488328 -0.0847010959756256 0.2472036960615933 1.526775082801196 1.3510443282433204 -1.2588922619275877 0.09200775294332549
0.031460283197958114 -0.608477340264678 -1.9823071149867562 0.4166063568126136 1.1325916495822592 0.15017546284077693 -0.8721819118025376 0.5138108052180107
1.0116681613261085 -1.90508277039849 0.4145235427179718 0.5203745107077048 1.8563293204366593 0.6384755924874086 -1.0518949995829356 0.4210430931384713
2.0427830514235894 0.13245224785419754 -0.8585518095307808 1.1171316460906748 -1.3840269373100471 -0.653191854745057 0.6966302277557581 -0.7147982689353396
0.35317720748290443 -0.02022053949742215 0.699708680066396 -1.557015631756728 0.9682804321899874 0.68211772186616 0.5390396247881242 0.536374171077686
-0.7112993256505501 0.8221987476993422 0.9992424670156682 -1.2172391353422019 -1.2988218835318364 0.17075866001809267 -1.081134392713962 -2.018617817680801
0.5057369354352916 1.2099641816939728 -0.72767595522343 0.02706346091916595 -0.7984298675266065 -0.5814863289731681 2.0341192283553053 0.1422860882686479
0.9579386945138042 -1.6424570091097428 0.10599237940124293 0.7070340758689777 1.2130047584267107 0.8364085662695669 1.0861385179513854 1.904540270238064
-0.4794803797855932 -1.6071959038747587 -0.21876743954874878 -1.301818369614184 -0.18210392867740186 -0.7098219143007507 -1.1574404223204746 0.1978764374024549
0.3478246600334333 0.4025392991837096 0.7395954676221783 -1.5859605434789057 0.5258397109705893 1.3436429687201308 0.6487276276717974 1.7485742516333536
1.189641021770333 0.25525169133083225 1.4783387468543092 -2.4359919652158664 0.8302536171014948 -0.6395067357786286 1.6242496367324317 0.4869359126967248
-0.02684060999212558 0.8645965159580214 -0.32592212917866836 1.188906578363156 -1.1743445055087494 -1.0113711125148896 -0.31542291230790787 -0.27273779270838683
2.2630842523691763 -1.3786371626049065 -1.0658575178375687 0.46642483140974705 0.3261012005682369 1.3143776239248461 1.1073396616396436 1.6489730877783493
-0.6538361997598078 -1.4973806229667133 0.7513552135183083 -0.11970316402448238 -0.7683632965242031 -0.7833966752316287 -0.3845576202914487 0.34105569374577294
00000000: 82d9 c7c0 d0d3 c03f 344a 984c e28b d2bf
00000010: 5bcc d3a3 744e f6bf 7830 3fec d795 f63f
00000020: 6a1d 0cd4 e4a5 f13f e3d8 af48 301a d63f
00000030: 7bb4 bafd 6625 e23f f014 121c 56de 0240
00000040: e1f0 4365 abe0 fdbf b953 dc0a 9e7a dfbf
00000050: 7d11 49c2 d39f e53f 014c f0e0 d729 f53f
00000060: 7ea3 3907 693c d53f 4d15 30d7 21d0 eb3f
00000070: bfc3 feca 9bf8 fe3f 73c8 c5dc 5d92 e13f
00000080: 3409 8a71 6b0c b3bf f4e1 6b27 3683 fdbf
00000090: 8c12 4439 ab6a edbf b32b bc77 5e64 e5bf
000000a0: 92af 64b7 c7e9 e4bf 0070 8fe8 ffba e03f
000000b0: 247b edde 342e a33f 4f00 e8b1 e192 acbf
000000c0: 6b9b 7a50 ee04 ee3f 6c3f a535 48ed 0040
000000d0: 589b 54c0 b36f fbbf 57ca e935 318f e5bf
000000e0: 2f59 e96b bf67 c0bf 8092 3014 9f5f dbbf
000000f0: d651 a8f9 bb8d f3bf ddeb 8893 824e fbbf
00000100: 195c 594c d4f3 f63f 6eda 0cfc f247 e6bf
00000110: f2e2 1573 da7e f43f 0808 7bde 7489 b5bf
00000120: 878d 4ab9 e965 d4bf b97a 715a d83b fbbf
00000130: 7dfa b1c4 512c b3bf 132f d6cb cd68 ce3f
00000140: 29e3 5e01 57b1 d8bf ecf0 ee95 e1e4 e4bf
00000150: df75 a64a ae0e 9dbf 13c2 2dd7 7760 f3bf
00000160: 783a 57e8 e4ee d3bf 133b 67de 0acc c0bf
00000170: a205 6e64 cd94 f4bf 7fd6 6113 6410 d5bf
00000180: 96ac 2aaa 4947 e03f 435c 214c 8c01 e3bf
00000190: 5d2e 2722 8066 00c0 4595 81b8 f321 dfbf
000001a0: 6dfa edda a570 8e3f 653a 50ec 7c30 f0bf
000001b0: e871 d9cb 7f3c e03f d7f2 f4e9 41c7 e33f
000001c0: 95a1 d958 0c8c e73f 5f7d 4eec 8865 e3bf
000001d0: 7a8b 1e0f 8788 d5bf d03a dc16 5aaf 0b40
000001e0: 5fcb 3ef1 90e4 f23f 7a46 a324 caea 01c0
000001f0: 5ab6 2a09 f15e e8bf 688d 751c 59c6 e33f
00000200: 2da3 c2b3 af0a eb3f 6429 79f7 6665 0440
00000210: ba08 c1e6 aaed c2bf bf4c 3976 8f49 00c0
00000220: d19d 21c8 0d2c 773f 68e8 3753 94db f13f
00000230: 02f4 ab95 cdf1 e6bf 0732 6814 ff87 d13f
00000240: 84d5 6d0d 670f bbbf c77c 08ca fb7a d6bf
00000250: faf7 825e a686 d63f 2ff6 ce30 4bd0 d1bf
00000260: 8c21 74d5 cf0a fa3f 080b 66dc 3ce6 f6bf
00000270: 0b62 ce15 e1f2 fbbf a53b 44b6 d4fd d63f
00000280: 396e 5be1 e301 df3f a0ea 4675 3506 c9bf
00000290: 54ef 3418 def5 c9bf c29f 85a5 1159 f1bf
000002a0: 3909 aff9 de09 d43f 1f04 4244 eda1 a13f
000002b0: 89e4 89d8 2543 e93f b9ac 69e9 b453 a83f
000002c0: ad81 e157 0b8d e1bf 5238 df89 6345 d0bf
000002d0: a8e9 3875 f881 e93f 24b6 3d08 bf51 df3f
000002e0: 99e6 24c3 d367 f83f 6009 4772 b239 f33f
000002f0: 021b 6746 84dc e2bf 33e3 2c7b 3e9e fb3f
00000300: 7a84 e90d 3196 0140 6c91 908d 0a51 ae3f
00000310: fbb0 2125 57b8 c2bf c19c 8562 68cb f4bf
00000320: bfc9 d60d a6a0 d1bf 3270 a503 c0bc e83f
00000330: 9664 71fc 238b f83f b903 e5d5 816a de3f
00000340: dc38 985c 8754 dcbf 0b71 02ea 8125 bbbf
00000350: e968 b98c 7339 fabf b14e e163 61c6 b6bf
00000360: 4417 256a a98e d83f 0531 3e4d e276 ec3f
00000370: 2ce6 be88 5162 f43f 17e8 f40e ac0b da3f
00000380: 16b8 f63e 0a95 c6bf 90ea 86fe fac6 edbf
00000390: b785 0cbf e5e1 d7bf 5e11 26c1 b64f e93f
000003a0: 5f87 da99 c992 dc3f 156d 4781 c057 f3bf
000003b0: b6fb 9ff7 8c59 ecbf e4b5 bc5e e100 a7bf
000003c0: 1199 08ff 87a0 dd3f 89d0 2a11 55a1 afbf
000003d0: 00e8 7fd7 162c d8bf 514d 753c 8e6f 00c0
000003e0: e343 1c4d cbb0 e2bf 8593 0f3b 2e66 f5bf
000003f0: e0b9 dd4b f38b e23f ebca 50a3 e515 e7bf
00000400: 4116 d87d 7b2d fb3f 1730 b56e de26 a9bf
00000410: fe77 bca8 c30d e63f 50ac 4749 44dd d43f
00000420: f6ce 4c04 69e2 f43f eeec 1a30 54a9 c43f
00000430: fb3d 8eb8 f167 ffbf dedf cf68 67b1 f13f
00000440: d2e6 605b 7ead d73f 6cb1 68c4 9ff2 e5bf
00000450: 18a5 f8a1 34f0 cb3f 72cb 0564 c510 f4bf
00000460: 2795 d8c0 7212 e43f 75af 318d 6d58 dc3f
00000470: 35ba 6aff 99d6 0140 bce8 63ff 5a9f c4bf
00000480: b8d1 b3f1 903b fa3f 348a e1da d83a e23f
00000490: 4192 2695 f8ae b5bf 8776 04e7 5ea4 cf3f
000004a0: 48a9 8fb5 ab6d f83f 8805 54a8 e09d f53f
000004b0: cda9 6236 6c24 f4bf 55ba def1 d18d b73f
000004c0: ce8f eaee 8f1b a03f 4567 9978 a578 e3bf
000004d0: 8ef0 57aa 87b7 ffbf 6a37 74b5 ada9 da3f
000004e0: 1edb ea6b 181f f23f d609 c816 f338 c33f
000004f0: 5659 6b0a eae8 ebbf dfc4 975b 2371 e03f
00000500: 29cd 34f4 ca2f f03f b08d 3012 387b febf
00000510: ef53 d9c0 8d87 da3f c72b 2572 e8a6 e03f
00000520: 091a 9e5f 86b3 fd3f 74e2 a05d 646e e43f
00000530: e58d e0d9 8fd4 f0bf 7221 cfba 5ef2 da3f
00000540: cd7f f5a3 9e57 0040 2561 68fc 31f4 c03f
00000550: 0367 fba4 4179 ebbf d893 d46e c5df f13f
00000560: a179 086e f924 f6bf 6498 c49a f2e6 e4bf
00000570: 60b6 b379 cb4a e63f fe11 8a9e a0df e6bf
00000580: 433a f592 749a d63f 3347 656f b1b4 94bf
00000590: 9599 3375 0364 e63f 4618 1c39 89e9 f8bf
000005a0: 949b b33e 27fc ee3f 64fd 6d8b e8d3 e53f
000005b0: c0d1 f606 d03f e13f 2354 662a fa29 e13f
000005c0: 3dc0 aacd f6c2 e6bf 5cc9 85bf 734f ea3f
000005d0: b569 9356 cbf9 ef3f 154c 5bbe cf79 f3bf
000005e0: e092 9174 f9c7 f4bf bbab 2476 6bdb c53f
000005f0: bb98 b493 534c f1bf d67e 3019 2126 00c0
00000600: e85c c239 ff2e e03f ef4f db66 035c f33f
00000610: 6aa5 b815 1f49 e7bf f0ef 411e 86b6 9b3f
00000620: f7a4 25cb bc8c e9bf eb58 c037 899b e2bf
00000630: 399b 4f4d e045 0040 0112 e537 6e36 c23f
00000640: a84f 900c 6fa7 ee3f a965 3300 8147 fabf
00000650: de4f 270b 5122 bb3f 9679 20ed 05a0 e63f
00000660: 955c 75ad 7768 f33f f11a c7e5 dbc3 ea3f
00000670: 0a6f 58c8 d260 f13f 5966 e937 ff78 fe3f
00000680: 962d 9079 ceaf debf 1784 560d 13b7 f9bf
00000690: f450 254b 9200 ccbf 0a33 ad7f 3fd4 f4bf
000006a0: 533f 1279 2e4f c7bf a2fc 7c72 dcb6 e6bf
000006b0: 37f5 8e3f e084 f2bf c971 a5dd 0354 c93f
000006c0: 9f7f e55c c242 d63f 9d52 5631 34c3 d93f
000006d0: 6ca0 361d c4aa e73f 05d0 af29 1860 f9bf
000006e0: 17d1 31cd add3 e03f f873 02c5 8f7f f53f
000006f0: c995 1b71 60c2 e43f 6f49 96fe 28fa fb3f
00000700: d8bc 2706 c508 f33f 64ef a030 0b56 d03f
00000710: d161 a287 46a7 f73f 095e ff5a e97c 03c0
00000720: a5c5 9a08 7091 ea3f a4b5 77d4 d676 e4bf
00000730: 0be4 e42f edfc f93f 29f1 113f f529 df3f
00000740: 65c5 7bd8 1a7c 9bbf cdce 0850 c6aa eb3f
00000750: 465d 777d e8db d4bf b11a 81e7 c205 f33f
00000760: a15b d676 1dca f2bf eded c579 932e f0bf
00000770: ea60 3195 e32f d4bf 3a35 0437 8974 d1bf
00000780: 5225 a0ea cb1a 0240 4f03 67d7 e50e f6bf
00000790: f4ed d49c c00d f1bf 8d9e 3c89 e7d9 dd3f
000007a0: 5c1f e891 d7de d43f 579f d5d4 b007 f53f
000007b0: 46e5 04cb a9b7 f13f d6df bf9a 3162 fa3f
000007c0: f718 dde4 39ec e4bf f3e5 5462 45f5 f7bf
000007d0: f9af b716 1a0b e83f 037f b6d6 dda4 bebf
000007e0: 1e95 c09f 6e96 e8bf 8147 7de7 9511 e9bf
000007f0: 3414 a590 979c d8bf 042c b042 dbd3 d53f
